snakeGame/model/model.pth (torch, 17216 bytes, 4 tensors)

linear1.weight f4 [256, 11]
000000 0c 04 ea be 54 87 ab bc 9b d2 94 be 64 5f aa bc
       -0.45706213 -0.020938553 -0.2906693 -0.020797439
000010 5c db 4b 3e 13 56 51 be 8b ea f6 be 84 c5 46 be
       0.19907898 -0.20442991 -0.48225817 -0.19411284
000020 fb 63 1a bf e0 21 80 3d 3d 7a aa 3e 09 05 ec bd
       -0.6030881 0.06256461 0.33296385 -0.11524398
000030 e3 9c 29 3f 98 81 01 40 3a b1 0c 40 7f c1 2f 40
       0.66255015 2.0235348 2.198317 2.746185
000040 9a a8 04 40 2a f0 f7 3f 44 91 4b c0 d7 7f 30 c0
       2.0727906 1.9370167 -3.1807413 -2.7578027
000050 2a 30 84 3e cb bd 36 3f eb 37 17 bf b5 31 ea bf
       0.25817996 0.7138335 -0.590697 -1.8296419
000060 30 26 30 be 76 7e 15 bf 59 6b 7c bf 1a d4 7a bf
       -0.17202067 -0.5839609 -0.986013 -0.9797989
000070 6f a7 d5 bf 93 f0 a6 bf 53 75 0f c0 36 33 fa 3e
       -1.6691722 -1.3042167 -2.241536 0.48867196
000080 e5 a6 9b bf c0 ec 71 be 2d 37 b8 3e a4 e4 c2 bf
       -1.2160307 -0.23625469 0.35979596 -1.5226026
000090 aa b3 8f 3f 6b 57 2a 3f 26 b7 53 3e 0f 4b 96 bd
       1.1226704 0.6653964 0.20675334 -0.07338535
0000a0 e8 fb c9 3d 6a 33 04 3f 55 d0 81 bf 0d 14 c1 be
       0.098625004 0.5164095 -1.0141703 -0.3771061
0000b0 ae 7d 19 bf 20 86 60 3f 72 3b 05 c0 f3 ad b6 bf
       -0.59957397 0.8770466 -2.0817533 -1.4271835
0000c0 ae 94 b4 3f 3f f9 e7 3f bc 0e 81 3f e3 9d a3 bf
       1.4107873 1.8122939 1.0082622 -1.2782558
0000d0 25 fb 99 bf 03 19 f8 be 34 ca d9 bd 8a 71 21 3e
       -1.2029768 -0.48456582 -0.1063427 0.15765968
0000e0 fd 0f 3f bf 3a cb 1f 3e b5 42 d3 be 9c eb 44 3e
       -0.7463377 0.15604869 -0.4126183 0.19230503
0000f0 36 47 8c 3d 9d 7a 51 bc 46 f2 6d 3d 80 dd 1e bf
       0.0684952 -0.012785581 0.058092378 -0.6205673
000100 36 c0 94 be 54 25 81 bd da 74 d0 bf 5f 52 39 bc
       -0.29052895 -0.06305948 -1.628566 -0.011311143
000110 a0 45 29 3f 3d c1 80 3f 36 c7 0a 40 0a fe b6 3f
       0.66121864 1.0058972 2.1684089 1.4296277
000120 d9 2e 8d bf 2d 7c 51 3f 7d b0 cc be f3 27 fa be
       -1.1029922 0.818301 -0.399784 -0.48858604
000130 56 24 24 c0 d7 08 5b be c9 a6 e8 be fb 25 c0 3e
       -2.5647178 -0.21390091 -0.45439747 0.37528977
000140 49 85 25 40 48 14 a1 3f f3 cd 9a be f5 3f 11 40
       2.58626 1.2584314 -0.30235252 2.2695286
000150 4e 67 24 3e 54 3f bb 3f 2a e1 d8 bf b9 7b f6 bf
       0.16055033 1.4628701 -1.6943715 -1.9256507
000160 0d 53 be bf b3 59 23 3e d7 71 4a bf 0c 9d b8 be
       -1.4869095 0.15952186 -0.79079956 -0.36057317
000170 c6 90 0c bf 82 23 88 3f 5e c7 42 be dc d4 d2 bf
       -0.54908407 1.0635836 -0.19021365 -1.647121
000180 23 e0 db bf 2e 24 72 bf 0d 57 29 3e 10 29 cc 3c
       -1.7177776 -0.94586456 0.16537113 0.024921924
000190 f9 ed 70 bf f8 05 12 3e 94 b5 bb 3d 66 b8 b4 be
       -0.9411312 0.1426009 0.09165493 -0.35296935
0001a0 3f 6d 58 3e 3f 75 7e be fe 0d 9f bc 91 af 7f 3e
       0.21135424 -0.24849413 -0.019415852 0.24969317
0001b0 14 70 9a 3c 8c 30 39 3e 83 1a 8b bf 2b 49 69 3e
       0.018852271 0.18084925 -1.0867466 0.22781818
0001c0 52 93 98 bf 58 b3 2c bf 01 8d ae 3e 2c 93 af 3f
       -1.1919959 -0.67461157 0.34091952 1.3716788
0001d0 ec 66 1d 3d af c7 f6 bf dc 28 27 bf d8 39 6f 3c
       0.038428232 -1.9279689 -0.6529672 0.014601193
0001e0 ca be b7 3f 5c b2 57 be 6c f2 9a 40 9f e2 a6 bf
       1.4355099 -0.21064132 4.8420925 -1.3037909
0001f0 1a c3 11 bf a0 08 bf be 4d 66 fb be 80 92 b1 bf
       -0.56938326 -0.37311268 -0.49101487 -1.3872833
000200 8d 2e 1e c0 ef 8f 2a c0 cc 4f 23 c0 88 27 f2 bf
       -2.4715912 -2.665035 -2.5517454 -1.8918314
000210 fc c7 79 3e 8d 6d fe 3e c4 38 72 bf 63 ce ea be
       0.24392694 0.49692956 -0.9461787 -0.45860586
000220 94 14 4b bd 41 d5 a9 bb 68 a1 a6 be 42 d2 b9 bd
       -0.04958017 -0.0051828925 -0.32545018 -0.090733066
000230 b8 fa ae be 0e a1 f4 be d7 db c3 bc 61 08 ef be
       -0.34175658 -0.47779125 -0.023908539 -0.4668608
000240 a1 e8 9c 3e 71 ae ab 3e 1e 3e 25 be 0a 97 68 bf
       0.30646232 0.33531526 -0.16136977 -0.9085547
000250 30 cb e7 3a 00 c1 08 bf 8e 87 f2 be b0 ab 9e be
       0.0017684456 -0.53419495 -0.47369045 -0.30990362
000260 2e de 82 be f7 5a 62 bd 93 6b 81 3d 57 9d 8f bc
       -0.25560135 -0.055262532 0.06319346 -0.01753108
000270 5c f7 b3 be 2c 30 b7 be 5b 36 e7 3a 00 22 97 be
       -0.35149658 -0.3577894 0.00176401 -0.29518127
000280 5b 09 f6 be d1 48 3a bc 82 9e c7 be bd 02 f0 3d
       -0.48054013 -0.0113699 -0.3898812 0.11719272
000290 a1 ef 63 bd 48 69 08 be b1 5f 2a 3f db 16 f0 3e
       -0.05564845 -0.13321412 0.66552263 0.46892437
0002a0 8b b4 7b bf 69 d3 24 bf 34 d0 1d bf 34 7b 1c bd
       -0.9832236 -0.64385086 -0.6164582 -0.038203433
0002b0 c1 cf 43 bf 84 7e 20 bf bf 68 39 bf 87 52 8d bf
       -0.7648888 -0.6269305 -0.72425455 -1.104081
0002c0 8b 99 b0 3e 4a 26 62 3f 06 2c a4 bf f4 f0 c3 3e
       0.34492144 0.88339674 -1.2825935 0.3826977
0002d0 92 39 32 40 13 35 56 bf ad 19 93 3f c2 62 cd 3f
       2.7847638 -0.83674735 1.1492211 1.6045763
0002e0 b3 9b 09 bf 4a 62 b5 bf 71 ed 68 c0 92 68 f0 3f
       -0.53753203 -1.417062 -3.6394923 1.8781912
0002f0 8c df 72 3f 64 e5 a6 3f e1 60 78 bf 78 c2 c1 3f
       0.94872355 1.3038754 -0.97022825 1.5137472
000300 11 80 65 bf 23 12 02 40 03 e3 cf 3f 8b f6 07 bf
       -0.8964854 2.032357 1.6241153 -0.5311057
000310 03 8b 80 3f 30 df b2 bf 59 dc b6 bb a6 73 14 be
       1.0042423 -1.3974361 -0.0055804667 -0.14497241
000320 c2 16 31 be 9f 60 24 be c0 6c af 3c 0c 2e 94 3d
       -0.17293838 -0.16052483 0.02141416 0.07235345
000330 dd d7 52 3d 6d c9 93 be fe c7 6c be c3 fd 1c 3e
       0.051475395 -0.28864613 -0.23123166 0.15331177
000340 00 d6 02 3c 2d 01 81 bf e5 1c a5 3f b3 0a a6 3f
       0.007985592 -1.0078484 1.2899443 1.2972015
000350 7f 6c 84 3f 0e aa 92 3f 59 75 1f 40 6b 28 04 40
       1.034561 1.1458147 2.4915373 2.064967
000360 61 c8 5e 3f fa b7 4f 3f 20 86 68 c0 66 3d 83 c0
       0.87024504 0.811401 -3.6331863 -4.101245
000370 de 62 8b 3d 80 19 8e 3c d2 dc 94 be e0 6a 35 3c
       0.06805967 0.017346144 -0.29074723 0.011072844
000380 e1 58 88 be dd f6 79 3e 6c 6d 44 3e de e5 6b be
       -0.2663031 0.24410577 0.19182366 -0.23036906
000390 ae 7b 50 be 10 33 eb bd 8b cb a1 bd 8b 91 77 bf
       -0.2035968 -0.11484349 -0.07900151 -0.96706456
0003a0 8b 0a ee be 67 bd 9b 3e 96 c3 ab 3f de f8 c0 3e
       -0.4649242 0.3041794 1.3419063 0.3768987
0003b0 5c 8a 52 be a1 a5 35 3f 15 18 19 3c 85 21 82 3f
       -0.20560592 0.70955855 0.0093441205 1.0166479
0003c0 96 7e b7 bf b6 6c c5 bf d8 e3 89 3e d5 f7 48 c0
       -1.4335506 -1.5423801 0.26931643 -3.1401265
0003d0 bb 3f 10 40 e3 bd 48 bf ec 49 e9 bf 8a 6d 65 c0
       2.2538898 -0.78414744 -1.8225684 -3.5848107
0003e0 86 79 35 c0 ee f3 35 c0 c7 28 2b c0 f3 3b 0d c0
       -2.8355422 -2.8430133 -2.6743639 -2.206784
0003f0 86 2c 80 bf b2 07 64 be 71 33 5e be 4b 23 dc 3d
       -1.0013587 -0.2226856 -0.21699311 0.10748919

linear1.bias f4 [256]
000000 81 5f 08 bf 24 97 48 c0 79 cb bb 3d 46 52 04 c0
       -0.5327073 -3.134225 0.09169669 -2.0675216
000010 19 cb a7 bf 9a b6 28 bf 13 de e9 bf 28 50 31 c0
       -1.3108855 -0.6590363 -1.8270897 -2.7705173
000020 c4 15 18 bf b7 d8 54 bf 48 f7 b4 bf 35 a7 11 40
       -0.5940821 -0.8314318 -1.4137964 2.2758305
000030 d3 48 5c bf 6a 1f 22 bf d9 35 65 be be db 06 bf
       -0.8604862 -0.63329184 -0.22383823 -0.5267905
000040 45 01 03 c0 f1 86 08 c0 06 37 a6 be 5c 9a 02 c0
       -2.0469525 -2.1332362 -0.32463855 -2.0406713
000050 89 c3 9b be 25 75 02 c0 85 87 32 3f 85 6c a3 3d
       -0.3042262 -2.0384 0.69738036 0.07979683
000060 62 75 f5 be 81 16 84 bf f2 80 35 bf 0f 21 84 3f
       -0.47941118 -1.0319368 -0.7089988 1.0322589
000070 6d 11 c5 bf 56 59 a4 be 92 fe 3d be d2 07 1f bf
       -1.5395943 -0.32099408 -0.18554142 -0.6212131
000080 d9 13 15 c0 b8 10 82 be 6c 6e 0e bf c2 cc 55 bf
       -2.3293364 -0.2540338 -0.5563724 -0.8351556
000090 f4 d1 f8 be d7 d0 91 be 33 da 11 3f 8e 2c 04 bf
       -0.48597682 -0.28479645 0.5697357 -0.51630485
0000a0 21 1a 2c c0 ac a7 6c bf d8 67 f6 be 8c 44 ae bf
       -2.6890948 -0.92443347 -0.48126101 -1.3614669
0000b0 20 9f 47 c0 9d 41 e7 be 80 75 02 bf 69 84 96 be
       -3.1190872 -0.45167246 -0.5096054 -0.29397896
0000c0 2d d9 cb bf 78 d5 86 3e 74 a0 95 be 37 7f ee 3e
       -1.5925652 0.2633474 -0.2922398 0.46581432
0000d0 5f d7 5f bf b7 06 b2 bf 08 98 c7 40 4b 8c 59 be
       -0.87438005 -1.3908299 6.2373085 -0.21244924
0000e0 6a bb f3 bf 97 e0 87 be e8 ff f0 bf 6e 62 d8 be
       -1.9041569 -0.26538536 -1.8828096 -0.42262596
0000f0 c7 5b 3f be 80 27 22 bf fe fd 04 c0 d6 b0 a6 be
       -0.18687354 -0.6334152 -2.0780025 -0.3255679
000100 fe f1 1f 3e bf 42 1f be 3f aa b5 bf b3 f2 91 be
       0.15619656 -0.15552805 -1.419258 -0.28505477
000110 54 5f 2a bf 77 3e 2f c0 ee 83 59 bf e5 99 cb bf
       -0.6655171 -2.7381876 -0.84966934 -1.590634
000120 3e 18 e8 bd 9e 7b cf bf 3d 2c a8 bf 24 bd ab bf
       -0.11332749 -1.62096 -1.31385 -1.3417096
000130 02 44 f0 be de 70 c2 bf cf 58 f3 be b2 49 c7 be
       -0.46926886 -1.5190694 -0.47528693 -0.38923413
000140 72 60 de be fb fe c2 bf 6a fb 43 bf 23 07 c8 bf
       -0.43432957 -1.5234064 -0.765555 -1.5627178
000150 26 41 b0 be d9 72 a5 be 10 d5 b3 bf 06 aa 11 bd
       -0.34424704 -0.32314184 -1.4049397 -0.035562538
000160 a6 5b 52 be ab 8b 2d be 09 7d 3a bf e1 b7 c9 be
       -0.20542774 -0.1694781 -0.7284704 -0.393981
000170 1b 46 9f be 2d e2 83 bf 7c d7 bc bf 7c bf 03 c0
       -0.31108174 -1.0303398 -1.4753261 -2.0585623
000180 04 5e d9 be 09 3f 60 be 5a 8c e8 be aa 97 cd be
       -0.4245454 -0.21899046 -0.4541958 -0.40154773
000190 0d 9d 65 be 16 5f 15 c0 d8 f2 41 bf 90 05 25 c0
       -0.22423191 -2.3339286 -0.75761175 -2.5784645
0001a0 0f ac e5 bf ec fe 83 be 47 ab 3d c0 ce da 3b bf
       -1.7943133 -0.25780427 -2.963579 -0.73380744
0001b0 be a8 03 bf 6d ab 41 bf 15 40 30 c0 0c be bd 3d
       -0.51429355 -0.756522 -2.7539113 0.09264764
0001c0 d5 2d be bf 3f 84 11 c0 9b e3 cc bf 8c 77 50 bf
       -1.4857737 -2.2736967 -1.600696 -0.81432414
0001d0 b1 91 27 3e 5a fc 23 c0 fa 8a e1 bf 10 74 96 be
       0.1636417 -2.5622773 -1.7620537 -0.29385424
0001e0 db 02 33 c0 39 ff 0d c0 ff 8c 7a bf c8 bb 18 c0
       -2.7970493 -2.2187026 -0.9787139 -2.3864613
0001f0 50 2b 2f c0 65 0e 34 3e 23 96 17 3f b5 81 16 c0
       -2.7370186 0.17583616 0.59213465 -2.3516667
000200 3c 80 26 c0 60 08 df bf e8 53 bd bf e1 4f a0 be
       -2.6015768 -1.7424431 -1.4791231 -0.31310943
000210 8d 40 0b bf 81 1b b0 3f f4 22 20 bf bc 34 00 bf
       -0.5439537 1.3758394 -0.62553334 -0.50080466
000220 8d a6 40 be 96 b7 b1 bd 45 d2 2d bf 52 68 da bf
       -0.18813534 -0.08677594 -0.6789897 -1.7063086
000230 5c cd 1c be 89 7d 93 bf d2 d4 c5 bc 3f e1 9d be
       -0.15312713 -1.1522685 -0.024149332 -0.30835912
000240 6f 85 13 bf cc 84 b2 bf b9 30 80 be ec 47 16 bf
       -0.5762548 -1.3946776 -0.25037172 -0.58703494
000250 c0 b0 f1 bf 9a 99 cf 3e 08 ae ec be ff 46 f2 bf
       -1.8882065 0.40546876 -0.46226525 -1.8927916
000260 71 06 a9 be c1 35 2a c0 53 ee 08 c0 0a 2f bc 3d
       -0.33012727 -2.6595309 -2.1395462 0.091886595
000270 d6 b5 91 3f 55 a7 18 bf cb cd 8f 3e d6 49 d9 bf
       1.1383617 -0.5963033 0.28086695 -1.6975658
000280 f4 b0 ee 3d 2b 5a 29 bd 00 68 17 c0 1e 8c c9 be
       0.11654845 -0.041345757 -2.3657227 -0.39364713
000290 b5 ad cf be 7f e7 ca be ed eb ad bf 0b 3e e4 be
       -0.40562215 -0.39629743 -1.3587624 -0.44578585
0002a0 45 77 c1 bd fb ba 35 be ab a5 ff be bc ef 2a c0
       -0.09446577 -0.17747109 -0.49931082 -2.6708822
0002b0 93 89 1b bf 7f 07 17 c0 d8 d6 b7 be 53 c1 2a bf
       -0.60756797 -2.3598325 -0.359061 -0.6670124
0002c0 93 e4 81 be 7a b3 1a c0 fd 84 18 c0 ff 4b 16 bf
       -0.253697 -2.4172044 -2.383117 -0.5870971
0002d0 2b b3 36 bf 16 c4 23 c0 d2 c1 ae bf cc c6 bc 40
       -0.7136714 -2.5588431 -1.3652899 5.899267
0002e0 7c bb 27 c0 f3 37 a7 40 1b c0 68 be ad 55 2d c0
       -2.6208181 5.2255797 -0.22729532 -2.7083542
0002f0 75 f3 d0 bd fc 5a 70 bf 02 83 91 be d4 be f9 bf
       -0.10202686 -0.9388883 -0.28420264 -1.9511361
000300 1e ee 00 be d7 76 2f be b8 11 d0 be 2c a2 92 3f
       -0.12590834 -0.17135178 -0.40638518 1.1455741
000310 74 cb 61 be 49 f8 33 bd f8 24 0e c0 53 53 1f be
       -0.22050267 -0.043937955 -2.2210064 -0.1555913
000320 75 31 8a bf b3 cd 53 3d e5 5c 8f bf 97 d6 47 bf
       -1.0796343 0.051709842 -1.1200224 -0.78061813
000330 04 b8 67 be 31 96 a9 bf fe c0 d9 bf 58 87 99 bf
       -0.2262879 -1.324896 -1.7012022 -1.1994429
000340 a0 83 98 be dd 8c e5 3d 6e 39 c9 be f5 5c ea 3e
       -0.29787922 0.11208508 -0.39301628 0.45774046
000350 da 87 f6 bf c4 00 f0 bc 7f f1 db 3f f0 43 15 c0
       -1.9260209 -0.02929724 1.7183074 -2.3322716
000360 39 d1 c4 bf b5 62 07 c0 50 a4 c8 be f6 ac bc bf
       -1.537635 -2.1153996 -0.3918786 -1.4740283
000370 c6 2a 17 be 48 31 32 c0 15 e5 90 3e 21 91 4d be
       -0.1476241 -2.784258 0.28299776 -0.20074894
000380 4a c5 59 bf af 85 ac bf 62 b1 ef be 12 d2 a1 bf
       -0.85066664 -1.3478297 -0.4681502 -1.2642233
000390 d6 53 00 c0 10 87 f7 bf 84 6a 23 be fa 09 6b be
       -2.005117 -1.9338093 -0.15958601 -0.22953025
0003a0 1a 4c 18 c0 d9 94 0c c0 fe b2 82 be 86 fb 91 bf
       -2.3796449 -2.196585 -0.25527185 -1.1404884
0003b0 45 d7 cd 3f c8 1d 2b be 74 59 f5 bf 2c 25 f2 bf
       1.608132 -0.1671058 -1.9167924 -1.8917594
0003c0 d7 61 92 be da ec 39 bf b2 4d bd bf 35 19 9a 3d
       -0.2859027 -0.7262703 -1.4789336 0.07524339
0003d0 7e d5 3c bf 55 03 2c bf ed 1d 4e c0 76 c6 c4 bf
       -0.73763263 -0.67192584 -3.2205765 -1.5373065
0003e0 5d a1 1a c0 7a 6a 71 bf e8 de 4a c0 63 8d c8 bf
       -2.4160988 -0.94303095 -3.169855 -1.5668148
0003f0 91 75 ac bf c9 5f 9d be c1 ea 14 bf 2b e4 89 3d
       -1.3473378 -0.3073714 -0.58170706 0.06732973

linear2.weight f4 [3, 256]
000000 cf ac 81 bc ec 05 cb bf 64 0d e7 bc 0a d1 85 b8
       -0.015829472 -1.5861182 -0.028204627 -6.380871e-05
000010 36 30 43 be b4 37 a2 bd 23 90 5e be ed eb 28 be
       -0.1906136 -0.07920781 -0.21734671 -0.16496249
000020 cf bf e6 3d 65 ce ab bc d3 da 6f be 45 13 80 3f
       0.11267053 -0.02097244 -0.23423319 1.000588
000030 a8 5d 23 3d 2d 71 bc 3e 24 52 ab 3d 6e f6 26 3d
       0.03988424 0.36805096 0.083652765 0.040762357
000040 43 5a 83 bf d2 54 0c bf 36 ac 0f 3d 55 af fc bf
       -1.0261921 -0.54816926 0.035076343 -1.9741007
000050 80 e5 00 bc 12 5e 24 bd be 20 4f bf b7 db e0 bc
       -0.007867217 -0.040128775 -0.80909336 -0.027448518
000060 64 5e 1a be f8 7c 96 3e 0c 0f e2 bd da 52 0b bf
       -0.1507507 0.2939222 -0.11038026 -0.54423296
000070 c5 fb b8 bf 87 33 05 3d 84 ac a2 be ae a3 f8 3d
       -1.4451834 0.032519843 -0.31772244 0.121405944
000080 78 c2 21 bf 8f 48 a8 3c 82 2c 3d bc 96 8e ae 38
       -0.6318736 0.020542411 -0.011546256 8.323525e-05
000090 3d 61 7b bc 5c eb 4c be a1 87 bd 3d 9a 23 65 bd
       -0.015343008 -0.20011657 0.09254385 -0.055942155
0000a0 ef cd 0a be e6 e7 28 be 0b 5b 95 be 48 dc 1e bf
       -0.1355512 -0.16494712 -0.29171023 -0.6205487
0000b0 8a 00 76 bd 75 ba 37 3c d2 1d b0 bc 82 c0 b9 bc
       -0.060059108 0.011213888 -0.021498594 -0.022674803
0000c0 3c 13 f3 be a1 dc e7 3c 0d 25 6f bd 41 3a ed b9
       -0.47475612 0.028303446 -0.058384944 -0.00045247565
0000d0 0d b8 31 bb e6 e1 5f bd 48 1b 47 3f b4 2d ad bd
       -0.002711776 -0.054658793 0.77776 -0.08455983
0000e0 d6 d2 4d be c0 01 97 bc b1 5b f8 bb 03 5b cc 3c
       -0.20099959 -0.018433452 -0.00757929 0.024945742
0000f0 30 78 87 3c f2 4e d1 38 2d 0c 0d bf 38 70 73 3c
       0.016536802 9.980601e-05 -0.55096704 0.014858298
000100 76 55 6f bf 6c 41 43 3b 7b 7c 81 be 83 c0 28 39
       -0.9348978 0.0029793633 -0.25290284 0.00016093445
000110 d5 37 40 3b ef 55 7b be fb db bf bd 5b 0a 38 bd
       0.0029330153 -0.245445 -0.0936813 -0.04493175
000120 20 70 d4 3c e2 fc 23 be c1 48 94 be a0 0b 1d be
       0.025932372 -0.16014436 -0.28961757 -0.15336466
000130 a3 8a c7 bc 60 fc 6f 3d f1 a5 1d bf fc e0 a5 3c
       -0.0243581 0.058590293 -0.6158133 0.020248882
000140 31 32 f1 3c d8 e8 19 be 73 b8 06 3e fe c7 c6 3d
       0.029442878 -0.15030229 0.131563 0.09706114
000150 74 24 48 bd ac c4 4e 3c d9 ed 81 be 8f 65 e0 bb
       -0.04886289 0.012620132 -0.25376776 -0.006848044
000160 81 7f e3 bc 98 53 78 3e 47 d0 06 bc 5f 4b f4 bb
       -0.02777076 0.24250638 -0.008228368 -0.007455274
000170 b9 2a 77 3b 24 19 b4 bd 0c 8b 07 3b 40 45 b8 be
       0.0037714674 -0.08793858 0.0020682244 -0.35990334
000180 37 ba 38 3c 0a bf 7b bb a1 6e e5 bc 69 fa cf bc
       0.011274866 -0.0038413429 -0.028006854 -0.02538796
000190 c7 4c 52 3c ba b7 20 bd dd 23 10 3c d2 cb 32 bd
       0.012835688 -0.039237715 0.008797613 -0.04365141
0001a0 c5 3d b5 be 0c ce 40 bc f6 d6 3d bd ac 9d 79 bc
       -0.3539869 -0.011767875 -0.04634758 -0.015235346
0001b0 32 4a f3 bd ac 22 75 3c 85 9f 24 bf 38 83 2b bc
       -0.11879386 0.01496188 -0.6430591 -0.010468297
0001c0 ff f2 e5 bc ff 8d 2a bd ff cf 59 3f bd 08 37 bd
       -0.028069971 -0.041639324 0.85083 -0.044686068
0001d0 fa c6 65 3c c9 7e 12 40 e1 17 22 3f 2f c1 81 be
       0.0140244905 2.2889884 0.63317686 -0.253427
0001e0 e7 44 87 3f 67 cf 83 bf 56 fe 01 bd ee 54 cc 3f
       1.0567902 -1.0297669 -0.031736694 1.5963418
0001f0 60 5f a2 bd aa 2d 33 bf f5 b4 ed bd 6d 21 04 be
       -0.079283476 -0.6999155 -0.116067804 -0.12903376
000200 03 38 9d bc 44 fd 0f bf cd 21 a7 bd ce 9e e3 3c
       -0.019191748 -0.5624583 -0.08160744 0.027785685
000210 33 70 ac 3a 61 49 86 3d 4f c0 84 bd 77 c0 40 3c
       0.0013155997 0.06556965 -0.064819925 0.011764637
000220 23 63 0c bc cb 56 b1 be ca f4 a0 bc 10 28 76 bd
       -0.008568558 -0.3463653 -0.019647975 -0.0600968
000230 93 86 a1 3a 80 28 1e 3d 29 d9 fa 3b e8 ec 08 be
       0.0012323431 0.038612843 0.007655282 -0.13371623
000240 f1 ef 41 bc c4 63 27 bf 03 70 f7 3c 41 08 e7 bd
       -0.011836992 -0.65386605 0.030204779 -0.11280871
000250 8b 3d 3b 3e ab f0 df be 2c 75 11 bb 99 5b a8 bf
       0.18285196 -0.43738303 -0.0022195084 -1.3152953
000260 27 96 0f 3a 06 76 f1 be ea e8 e2 bc 4a df 60 3b
       0.00054773915 -0.47160357 -0.027698953 0.0034312778
000270 9c 70 4c be b2 21 88 bf 43 e6 36 be 5f c5 87 3e
       -0.19964832 -1.0635283 -0.17861275 0.2651777
000280 bf 84 9b 3d 8e 08 8f 3b 39 15 0d bf c7 ae c7 bc
       0.07593679 0.0043650335 -0.5511051 -0.024375333
000290 fe 72 a7 be af 63 c4 bd a7 b8 04 bf 90 bb 8f bd
       -0.3270492 -0.09589326 -0.5184426 -0.070181966
0002a0 75 16 89 bd 3e 13 a1 bc 7d 97 3a 3d 99 79 40 be
       -0.066937365 -0.019662496 0.045554627 -0.18796386
0002b0 eb d2 5c bc 58 88 f1 bc dc ce 41 3b 04 b9 d3 be
       -0.013478021 -0.02948396 0.002957276 -0.41352093
0002c0 56 61 9d bd 9a 42 98 3c b5 f7 4c bf e6 92 72 3c
       -0.07684581 0.018586446 -0.8006547 0.014805531
0002d0 aa 09 86 be a3 ea e0 be 0b 4a 2b 3d b5 5b 36 3f
       -0.26179248 -0.43929014 0.04181866 0.71233684
0002e0 a0 41 42 3f 88 00 04 3f 99 2b 5e 3b 9c 9f d8 be
       0.75881386 0.5156331 0.0033900498 -0.42309272
0002f0 e0 2b b1 bc 4a a7 98 be ea 45 12 bd 03 0a 02 be
       -0.021627367 -0.2981513 -0.035711206 -0.12699132
000300 f1 b6 22 3c 8d ca a4 bc 7a a1 03 3a 12 22 85 be
       0.009931312 -0.020116115 0.00050213153 -0.26002556
000310 e3 94 9e 3b 63 04 7c 3c 03 b5 bc 3e 8c 0d 2d be
       0.004839526 0.015381905 0.3685685 -0.16899699
000320 ab bd 28 3c 61 77 50 be ae 14 49 3e 08 32 1f bf
       0.010299127 -0.2035804 0.19636795 -0.62185717
000330 b5 b0 90 3c 36 d4 21 bf 11 0c 96 be a1 80 b9 be
       0.017662385 -0.63214433 -0.2930608 -0.3623095
000340 3e 26 16 be 74 15 4e 3e 59 6c 35 3c cb dc 45 3e
       -0.14663026 0.20125371 0.011073195 0.19322507
000350 27 6a a1 be 9b 17 84 3c c3 bf 27 3f 97 83 9e be
       -0.315263 0.016124537 0.6552698 -0.3095977
000360 30 25 cb bf cd 10 da ba ef 15 f9 bd 82 1f 0c be
       -1.5870724 -0.0016637087 -0.121623866 -0.13683894
000370 8e 29 d5 b9 ee 2d 83 3f b7 51 15 bd 31 ce 6f 3b
       -0.00040657487 1.0248392 -0.036454882 0.0036591406
000380 bb a1 4a bd 61 c3 b3 3d 45 53 80 3c 70 48 d6 3a
       -0.049470644 0.087775 0.015664706 0.0016348492
000390 97 5c e7 bd 9f 0e 19 3f a7 af ad bd 56 46 a8 bb
       -0.11296957 0.59787935 -0.08480769 -0.005135338
0003a0 46 9c 20 be 25 7c 99 be 9e 99 0a bd 26 37 7e be
       -0.15684614 -0.29977527 -0.033837907 -0.24825725
0003b0 da 73 75 3e 3b 42 b9 bc 06 8a 5f bd 74 8b 5c bf
       0.23969975 -0.022614589 -0.05457499 -0.8615029
0003c0 c2 bd 84 3b a7 d7 4b 3c e0 e0 49 3d a8 4c 08 be
       0.004050941 0.012441552 0.049286723 -0.13310492
0003d0 b5 a1 9e 3c 1a 36 23 bb 15 40 fc 3c af 00 7e bf
       0.019364217 -0.0024904073 0.030792275 -0.99219793
0003e0 28 f8 f3 3c 7a ad 3a bc 3d ff e1 3f 60 05 13 bb
       0.029781416 -0.011393899 1.7656018 -0.0022433624
0003f0 74 99 42 b9 aa 7b 40 3c 8c b2 e4 b9 16 7d d7 bb
       -0.00018558447 0.011748234 -0.00043620577 -0.0065761907

linear2.bias f4 [3]
000000 13 b6 e4 3f 67 e9 3f bf ad 98 1b bf
       1.7868065 -0.7496552 -0.6077984
